Version_3/v3_TrainAI_ep256.pth (torch, 127276 bytes, 8 tensors)

linear_relu_stack.0.weight f4 [256, 16]
000000 fc c7 e4 bd 8a 31 02 be 40 b7 12 be b0 d7 28 be
       -0.111709565 -0.1271421 -0.14327717 -0.16488528
000010 10 42 00 3e f0 5d 5b bd 20 6e f7 3c 00 76 3c bd
       0.12525201 -0.053556383 0.030203879 -0.04601097
000020 e0 8b 0a bc be 2f 05 3e 0e 74 19 3e 00 9c d1 bd
       -0.0084562 0.13006493 0.14985678 -0.10234833
000030 7a d6 20 3e 60 e1 d7 3c fc 02 49 3e 80 2b fe bd
       0.15706816 0.026352584 0.19630045 -0.12410641
000040 52 06 7c be 50 99 b2 bd b8 0d 12 bd 1c ee 81 3d
       -0.24611786 -0.08720648 -0.035657614 0.06344244
000050 5c 14 94 3d 80 4e e2 bd 88 64 22 bd d0 4f ec bc
       0.07230446 -0.11050129 -0.039646655 -0.028846651
000060 30 33 b0 3c c0 a7 15 3d d8 1b 18 3e 18 36 81 3d
       0.021508783 0.036536932 0.14854372 0.06309146
000070 28 d2 64 3d e0 b3 22 bc e0 46 95 3d ec 6f 6a be
       0.055864483 -0.009930581 0.07288909 -0.22894257
000080 a8 0b 13 be 4c e8 59 be 42 81 24 3e 46 89 52 be
       -0.14359915 -0.2128002 0.16064933 -0.20560178
000090 be 02 1c be 50 16 a8 3c 6c 6a a0 bd 20 fe 6e bc
       -0.15235421 0.020518452 -0.07832798 -0.014586955
0000a0 4a d5 68 be 50 8b 75 3e 40 1e b0 bb a8 b9 da bd
       -0.22737613 0.23978925 -0.0053747 -0.10679942
0000b0 7c 07 95 3d 90 20 50 bd 90 48 8c bc 94 48 89 bd
       0.07276818 -0.050812304 -0.017124444 -0.06703296
0000c0 cc 3d 55 3e c6 e8 6c 3e ec 03 0a be fa af 43 be
       0.20824355 0.23135671 -0.13478059 -0.19110098
0000d0 3e 8b 14 be 9e 8c 1a 3e 10 d9 a3 3d d4 50 a3 bd
       -0.14506242 0.15092704 0.08000386 -0.07974401
0000e0 d8 49 08 3e 6c 6c ec bd 52 a5 30 be 84 01 af bd
       0.13309419 -0.11544117 -0.17250565 -0.08545211
0000f0 d0 47 62 3e 88 9a d5 3d a2 5e 50 be 4a df 4d 3e
       0.22097707 0.10429865 -0.203486 0.2010471
000100 88 10 6b be 08 79 be 3d 04 dd af bd 00 f3 02 3c
       -0.22955525 0.09300429 -0.08587077 0.007992506
000110 fc 42 3e 3e 0c 8a f5 bd a0 36 56 3d ac b4 ab 3d
       0.1858024 -0.11989221 0.05229819 0.0838407
000120 08 f0 b4 3d de 76 3a be 84 2e 3f be b4 47 8d bd
       0.08834845 -0.18209407 -0.18670088 -0.06898442
000130 b8 e9 0a 3e ee f0 2b be b2 62 55 be 24 c2 dc bd
       0.13565719 -0.16791126 -0.2083843 -0.10779217
000140 d8 f3 bf 3d 80 b7 85 bc c4 38 02 be a0 13 d8 bd
       0.093726814 -0.016322851 -0.12716967 -0.10550618
000150 50 26 fe bc 98 f8 51 3e 46 d6 42 3e ee 58 3c be
       -0.031024128 0.20504987 0.19027051 -0.18393299
000160 9e e1 69 be 76 ec 4c 3e 48 96 96 bd a8 14 2f 3e
       -0.22839972 0.20012078 -0.073528826 0.17097723
000170 62 e6 44 be b4 09 51 3e c4 09 2d 3e 90 1c 1b be
       -0.19228509 0.20413858 0.16898257 -0.15147614
000180 a6 c9 55 be 30 8c 6d bd 0c 18 61 be 20 61 68 3e
       -0.20877704 -0.05799502 -0.2198183 0.226933
000190 30 a4 21 be 02 45 47 3e a0 e9 5a bc 1c 38 0d 3e
       -0.15785289 0.19459918 -0.013361365 0.13790935
0001a0 ce 4c 40 3e 98 00 63 be 1c c8 90 3d f0 44 bd 3d
       0.18779299 -0.22168195 0.07069418 0.092416644
0001b0 34 70 9c bd c0 e7 3c 3e 64 81 11 be 20 11 c6 3d
       -0.076385885 0.1844778 -0.14209515 0.09671235
0001c0 40 3f 89 3d a4 25 c9 bd 2e ca 1b 3e c8 6d 01 be
       0.06701517 -0.098216325 0.15213844 -0.12639534
0001d0 a4 70 d7 3d 70 03 e9 3d 84 88 14 be 60 d3 ae bc
       0.10519531 0.11377609 -0.14505202 -0.021341026
0001e0 70 e3 e2 3d 38 2e 50 3d 10 34 57 3e de d2 7b 3e
       0.110785365 0.050825328 0.21015954 0.24592158
0001f0 c6 66 26 3e a0 f2 ba bd b2 9b 34 3e 68 92 41 be
       0.16250142 -0.09128308 0.17637518 -0.18903506
000200 c8 b2 5b 3e 00 6e 19 bc 22 d8 76 3e 80 01 db 3d
       0.21454918 -0.009364605 0.24105886 0.106936455
000210 16 8a 71 3e 00 76 c7 bb 7e d5 64 3e b8 4e 06 bd
       0.23587832 -0.0060870647 0.22347066 -0.032789916
000220 20 ea ea bd 3a 9c 47 3e 80 ee fe bd 36 2b 6f be
       -0.11470437 0.1949319 -0.12447834 -0.23356327
000230 84 35 65 3e 24 06 dd 3d fa 4e 2a be 50 4b df 3c
       0.22383696 0.10792187 -0.1663169 0.027257591
000240 78 a5 11 be 7c ad 5c be 28 0a 8a 3d 14 bc 41 3e
       -0.14223278 -0.21550554 0.067402184 0.18919402
000250 80 7a 8f 3c c8 97 70 3d 08 5c 3e 3e a8 3e b0 3d
       0.017514467 0.0587385 0.18589795 0.08605701
000260 68 5f f1 bd e0 87 0b 3e 08 ee d8 bd 70 18 d0 bc
       -0.117857754 0.13626051 -0.10592276 -0.025402278
000270 60 fb 28 3c a6 7c 59 be ea 69 74 3e e0 ae 16 3c
       0.010313839 -0.21238956 0.23868528 0.009196967
000280 3e e5 33 be 30 3d c2 3c 04 2b 73 3e a4 8a c1 3d
       -0.17567918 0.023710817 0.23746878 0.09450272
000290 50 e7 eb bd c4 22 94 3d c0 d9 c5 bd d0 05 73 3e
       -0.11518729 0.072331935 -0.09660673 0.23732686
0002a0 74 07 24 3e 60 01 cf bd a8 ac c7 3d 40 ca a0 bb
       0.16018468 -0.10107684 0.097497284 -0.0049069226
0002b0 d8 d9 91 bd 24 b1 94 3d 10 cd 2c be 54 78 2e be
       -0.071216285 0.072603494 -0.168751 -0.17038089
0002c0 04 8d 5e 3e 40 12 d1 3b 44 b4 35 3e be ce 1f 3e
       0.2173348 0.0063803494 0.17744547 0.1560621
0002d0 00 38 49 39 8e 09 0e be 34 e8 1c be c4 89 fd bd
       0.00019189715 -0.13870832 -0.15322953 -0.12379792
0002e0 70 da d4 bc b8 df ad bd 18 c6 d5 3d 86 d4 35 be
       -0.025983065 -0.084899366 0.10438174 -0.17756853
0002f0 1e 4f 00 3e a6 30 3f be f4 de af bd b0 8c dc 3d
       0.12530181 -0.18670902 -0.08587447 0.107690215
000300 60 f6 1c be 40 17 56 3c b8 78 28 be 7c 54 ea 3d
       -0.1532836 0.013067067 -0.164523 0.11441895
000310 0c f5 c7 bd a0 9e a5 3c 4a d3 1d be 16 fe 41 3e
       -0.09763536 0.02021724 -0.15412632 0.18944582
000320 78 d0 5f be 00 46 56 bc b4 11 73 be 90 94 2e 3d
       -0.21856868 -0.013078213 -0.23737222 0.04262215
000330 b0 d0 f2 3d 76 f7 7a 3e c2 77 02 be b0 3e d1 bc
       0.1185621 0.24508461 -0.12740996 -0.025542587
000340 74 ae b0 bd b8 1f 05 3d b0 e5 d4 bd 0a b7 7d 3e
       -0.08627024 0.032500952 -0.10395372 0.24776855
000350 00 d1 30 3d c4 dc 14 3e f4 7e d3 bd f6 23 18 be
       0.043168068 0.1453734 -0.10326949 -0.14857468
000360 b2 35 64 be c4 a2 3b be 70 28 3c 3e e8 4c 24 3d
       -0.22286108 -0.18323809 0.183748 0.040112406
000370 b6 66 78 be 84 d3 e9 3d e8 03 15 3e 8e b2 35 be
       -0.24257931 0.114172965 0.14552271 -0.17743894
000380 00 e4 a4 3a c0 c6 f2 3c 46 29 3d 3e 48 9e 1c 3d
       0.0012580156 0.029635787 0.18472776 0.038236886
000390 7c 05 ac 3d e2 35 63 3e 4c ec 18 3e d2 e0 43 3e
       0.083994836 0.22188523 0.1493389 0.19128731
0003a0 88 25 99 bd 30 a7 7b be 0a ae 15 be 40 1b 48 3e
       -0.07477862 -0.24575496 -0.14617172 0.19541645
0003b0 b0 eb 69 3d 28 56 c9 bd 98 d9 57 3e 10 29 74 be
       0.057109535 -0.09830886 0.21079099 -0.23843789
0003c0 e8 3f 02 3e d2 f5 12 3e e0 5c 11 bc 88 60 d9 bd
       0.12719691 0.14351586 -0.008872241 -0.10614115
0003d0 fc 29 e1 bd 88 1b 8b bd 0a d0 63 be 60 6e 50 bc
       -0.10994336 -0.067923605 -0.2224733 -0.012721628
0003e0 8c de 79 be 78 6d 0b 3e a6 17 44 be 6a ec 52 be
       -0.24401301 0.13615978 -0.19149646 -0.20597997
0003f0 90 88 a0 bd 70 59 cd bd 8c 17 fa 3d 5a 48 35 3e
       -0.07838547 -0.100268245 0.122115225 0.17703381

linear_relu_stack.0.bias f4 [256]
000000 9e 18 76 3e 3c 10 d3 3d 7c 24 76 be 50 5f a5 bd
       0.24032828 0.10305831 -0.24037355 -0.0807482
000010 80 48 15 3e 08 cd 39 bd c2 a1 63 3e 7a 6e 53 be
       0.14578438 -0.04536155 0.22229674 -0.20647612
000020 06 97 6b 3e aa 1c 6f 3e 9c fb 04 be 4a 71 7b 3e
       0.2300683 0.23350778 -0.12986606 0.24554935
000030 1a c0 3f 3e f2 38 28 be a4 6c 68 3e a8 5e a2 bd
       0.18725625 -0.16427973 0.22697693 -0.079282105
000040 38 92 60 3e 00 88 83 39 22 ac 1f be 7a 8c 7c be
       0.21930778 0.00025087595 -0.15593007 -0.24662963
000050 b2 a9 26 3e 4e d0 3e be 3c b2 8a 3d 40 62 ad bb
       0.16275671 -0.1863415 0.06772277 -0.0052912533
000060 78 44 47 be 66 c2 7b 3e 16 82 3f be ee 0e 4a be
       -0.19459713 0.24585876 -0.18701968 -0.19732258
000070 6e 26 4c be 40 60 85 3c c0 8a 30 bd cc 0b 2f be
       -0.19936535 0.016281247 -0.043101072 -0.17094344
000080 4c 3c c8 bd 4c 38 e6 bd d8 3d 58 3e 1a d8 61 3e
       -0.09777126 -0.112412065 0.21117342 0.22055092
000090 2c 8c d9 3d e8 8e 03 3d 02 f3 25 3e f0 f1 a4 3d
       0.10622439 0.032118708 0.16205981 0.080539584
0000a0 da af 3a 3e 20 1d 65 3c c2 ed 6c be b8 3c 33 be
       0.18231145 0.013983995 -0.23137572 -0.17503631
0000b0 b8 9a 7c be 7e 1a 20 3e 38 d9 90 bd 92 6b 6d be
       -0.24668396 0.15635106 -0.07072681 -0.23185566
0000c0 90 18 52 be d8 51 a8 bd 60 d9 ca 3c 9c 5f 53 be
       -0.20517182 -0.082187355 0.024761856 -0.20641941
0000d0 18 01 5b bd 50 8b bd bd f2 e7 02 be a8 a8 24 bd
       -0.05346784 -0.092550874 -0.12783793 -0.040199906
0000e0 70 18 c0 bc 6c 32 91 bd e8 5a 57 3d ac bd 85 3d
       -0.023449153 -0.07089695 0.05257693 0.06530318
0000f0 7e cf 06 3e 10 08 87 bc 72 ab 7a 3e f8 7a 66 be
       0.1316509 -0.016483337 0.24479464 -0.22507846
000100 48 3e 61 3d 26 a7 55 be 90 fd dd bd a8 f3 20 3d
       0.054991037 -0.20864543 -0.10839379 0.03929487
000110 08 8f 48 3e 34 8b c1 3d 18 67 17 be 50 4e e0 3d
       0.19585812 0.09450379 -0.14785421 0.10952437
000120 98 76 78 3d f0 6f 56 3d 16 13 36 3e fe e8 33 3e
       0.060659975 0.052352846 0.17780718 0.17569348
000130 54 fb 13 be 3e fa 2e 3e 66 aa 53 3e 00 d2 0a bb
       -0.14451343 0.17087647 0.2067047 -0.0021182299
000140 d4 5c 76 3e 1e dc 64 3e 2e 15 73 3e 0c 8a 37 be
       0.24058849 0.22349593 0.23738548 -0.17923754
000150 1c 54 78 3e ec 7c 65 3e dc 49 19 be b0 f3 88 3c
       0.24250835 0.22410935 -0.14969581 0.016717762
000160 f0 a9 e4 bd 78 7e f0 3d 88 7a 2a 3d e8 8b 02 3d
       -0.111652255 0.11742872 0.04162076 0.031871706
000170 a0 65 23 be 58 3e 2b bd 8e aa 41 be fc 61 12 3e
       -0.15956736 -0.041807503 -0.18912718 0.1429519
000180 7c 90 54 3e b4 46 f1 bd 18 36 56 bd a4 ec 8e bd
       0.20758241 -0.11781064 -0.05229768 -0.06978729
000190 f4 c2 fa bd 98 a8 34 be 04 e5 c9 bd 8c 34 77 3e
       -0.122442156 -0.17642438 -0.098581344 0.24141139
0001a0 08 74 29 be 26 dd 45 3e 70 3d 6f 3d 40 f4 1f 3c
       -0.16548169 0.19322643 0.0584082 0.009762824
0001b0 20 73 13 3d 22 ff 6d be 6c 2f 92 3d ea 7f 73 3e
       0.035998464 -0.23241857 0.07137951 0.23779264
0001c0 1c 5e b6 bd 0a 83 18 3e e8 a3 3d bd 22 19 37 3e
       -0.08904669 0.14893737 -0.04629889 0.17880681
0001d0 6c 66 ec 3d f0 41 1f bd 00 ce 05 bd 40 27 3c be
       0.11542973 -0.038881242 -0.03266716 -0.18374348
0001e0 5e 8f 6c 3e f8 2d 93 bd d8 0b 45 bd b0 67 74 be
       0.23101565 -0.07186502 -0.048107 -0.23867679
0001f0 70 65 eb bd 70 9a 0c bd 7e 55 77 3e ba ae 06 be
       -0.11493957 -0.03432697 0.24153706 -0.1315259
000200 34 a3 2a 3e 02 c5 5c 3e 9a ab 76 be 9a 48 1d 3e
       0.1666382 0.21559528 -0.24088898 0.15359727
000210 b4 02 8b bd 90 9e 48 be b6 cf 3f 3e 38 fd 21 be
       -0.06787625 -0.19591737 0.18731579 -0.15819252
000220 f8 ef 37 3e cc b5 30 be 80 72 96 3b ae 27 1a 3e
       0.17962635 -0.1725685 0.004591286 0.15054199
000230 00 1f 00 3d 60 c8 a7 3d 04 3d e1 3d 5e 72 79 be
       0.031279564 0.081925154 0.10997966 -0.24360034
000240 3a f3 51 3e fc 0b c5 3d dc e1 b9 3d 08 78 a6 3d
       0.2050294 0.096214265 0.090762824 0.08128363
000250 10 0f a0 bd 36 31 71 3e ee f0 74 3e e8 14 0f 3e
       -0.07815373 0.23553929 0.23920032 0.13972819
000260 58 60 9a 3d 18 ca 27 bd a8 6c 18 be a8 c0 57 3e
       0.07537907 -0.040964216 -0.14885199 0.21069586
000270 18 5f 51 bd e8 2d 1a 3d a0 e8 61 be 80 8a 96 3c
       -0.05111608 0.037641436 -0.22061396 0.018376589
000280 e0 94 23 bd ae 8d 5b 3e e8 b4 74 bd 30 cd 3c 3d
       -0.0399369 0.21440765 -0.05974284 0.04609412
000290 20 8d 98 3d 70 50 eb bd 38 ad eb bd f0 a8 25 be
       0.074487925 -0.114899516 -0.11507648 -0.16177726
0002a0 f0 00 21 bd 04 e7 94 3d ba 1e 29 3e 38 30 5b be
       -0.039307535 0.07270625 0.16515628 -0.21405113
0002b0 60 af 23 be f0 2f da bc b8 ed 52 bd 56 0b 37 3e
       -0.15984869 -0.026634187 -0.051496238 0.17875418
0002c0 c8 0b d3 3d a0 18 13 bd e8 a7 8d bd 18 79 15 3e
       0.103049815 -0.035912156 -0.06916791 0.14596975
0002d0 30 19 70 be ae 32 20 be 2a 12 25 3e 00 32 39 bb
       -0.23447108 -0.15644333 0.1612021 -0.0028258562
0002e0 b8 fc c5 bd 3c 8a d5 bd e0 de 45 bd 34 e8 60 3e
       -0.09667343 -0.10426757 -0.048308253 0.21963578
0002f0 30 e4 7f bd dc 6e 03 be 40 ad 6f bd 60 72 db 3d
       -0.062473476 -0.12835258 -0.058514833 0.10715175
000300 70 9c ef bd 7c 4e dd 3d 3c 77 39 be a0 5f c7 3d
       -0.1169976 0.10805985 -0.1811189 0.09735036
000310 98 c3 6b be 58 78 df 3d 98 f3 41 3d c0 a9 0e 3e
       -0.23023832 0.109116256 0.04735145 0.13931942
000320 f4 f8 f8 bd d4 ce 7b be 58 c9 a0 3d aa 0e 6e be
       -0.12156859 -0.24590617 0.07850903 -0.23247781
000330 4c d5 27 3e f0 70 b2 bc f0 fd de bc 0c 9b 66 3e
       0.1638996 -0.021782368 -0.027220696 0.22520083
000340 82 fc 47 3e 58 21 09 bd e8 c5 4a 3e b8 11 65 3d
       0.19529918 -0.033479065 0.19802058 0.0559251
000350 c0 f9 f3 3b 90 d8 80 bd 86 5b 0d 3e ba 15 6b be
       0.007445544 -0.06291306 0.13804445 -0.22957507
000360 86 07 61 be f0 f7 f6 bc 70 b3 af 3d 70 fb 6b 3d
       -0.21975526 -0.030147523 0.08579147 0.057612836
000370 64 fb 07 3e e0 14 9b 3d b0 e4 1b be 58 1f 33 be
       0.13279492 0.07572341 -0.15223956 -0.17492425
000380 2e 8c 4c 3e 08 35 51 bd f6 60 2f be c8 c6 42 3d
       0.1997535 -0.051075965 -0.17126831 0.047552854
000390 10 09 d4 3c 4c 51 53 3e 20 82 62 bc ec 7a 84 3d
       0.025883228 0.20636481 -0.0138249695 0.06468758
0003a0 70 2a 73 be 60 4e 65 3c 84 f1 3f 3e d4 8e b7 bd
       -0.23746657 0.013995737 0.18744475 -0.08962789
0003b0 70 44 db bd d0 a9 60 3e d0 02 62 be a0 18 fe bc
       -0.10706413 0.21939778 -0.22071385 -0.031017601
0003c0 04 4d 22 3e 80 9a 60 bc 04 71 3b be 08 5b 06 3d
       0.15849692 -0.013708711 -0.18304831 0.032801658
0003d0 2a 6a 74 3e fc a7 59 be 80 c3 84 3b 88 b8 58 bd
       0.23868623 -0.21255487 0.0040516257 -0.052910358
0003e0 8e 39 7b 3e 80 dc 12 3d 48 b0 d7 3d a2 3a 4a be
       0.24533674 0.035854816 0.1053167 -0.19748929
0003f0 58 c1 70 bd d0 7c 5d bd b0 fe 89 bd 9a 01 30 be
       -0.058778137 -0.05407411 -0.06738031 -0.17188111

linear_relu_stack.2.weight f4 [96, 256]
000000 60 3f ab bc 98 83 c4 3c 66 ec 69 3d b8 4f 8e 3c
       -0.020904243 0.02398853 0.057110213 0.017371997
000010 a0 db 6d bb 78 31 3d 3d 30 02 68 bd 50 57 d4 3b
       -0.0036294237 0.046189755 -0.05664271 0.006480135
000020 44 08 9c 3c f8 75 34 3d a8 50 d8 3c dc cf 81 bc
       0.01904691 0.044057816 0.026405647 -0.015846185
000030 00 55 f8 3c 60 36 5b 3b 98 69 2f 3d 5e fc 4c 3d
       0.030313969 0.0033449158 0.04282531 0.050045364
000040 ca bf 29 bd 10 99 f6 3c e4 fb 42 3d e8 14 b2 bc
       -0.04144267 0.030102283 0.047603503 -0.021738485
000050 e0 68 e0 bc f8 c8 8e bc c4 73 68 3d 74 d9 a7 bc
       -0.027393758 -0.017429814 0.056751028 -0.020489432
000060 ca d1 20 bd 48 54 cb bc 60 f1 2d 3c 96 c9 6e 3d
       -0.03926257 -0.024820462 0.01061663 0.058297716
000070 42 84 2c 3d 84 7c eb bc a0 77 3f bd 00 8b fe 39
       0.04211832 -0.028745897 -0.046744943 0.00048550218
000080 04 fa 6b bd c0 75 d8 bc 18 c9 ce bc 20 fc 50 3d
       -0.05761148 -0.026423335 -0.025242373 0.051021695
000090 fa fa 32 bd 5e f6 5e 3d 8a 57 6d 3d 28 7d 99 bc
       -0.04369638 0.054434173 0.057944812 -0.018736437
0000a0 7c 9d 95 bc 70 a7 80 bc a4 bf e0 bc f4 6c e0 bc
       -0.018263571 -0.01570484 -0.027435131 -0.027395703
0000b0 70 29 4f bd 66 48 29 bd 80 ac a6 bb 42 4f 67 3d
       -0.050576627 -0.04132881 -0.0050864816 0.05647207
0000c0 d0 b9 22 bd 9a 3f 57 bd 32 ad 2b bd a0 c8 4f bd
       -0.039727986 -0.05255089 -0.04191322 -0.05072844
0000d0 24 22 e9 3c ec ad 8f 3c de a7 44 3d 18 f4 24 bd
       0.028458662 0.017538987 0.048011653 -0.04027185
0000e0 40 11 0e bc 50 bd 92 bb 92 ec 0c bd b0 a1 46 bd
       -0.008671105 -0.004478134 -0.0344053 -0.04849404
0000f0 ea bb 2e 3d 7c 5f d8 bc ce b2 2c bd 4e 8f 4e bd
       0.042659678 -0.026412718 -0.04216271 -0.050429635
000100 60 6a f4 bb 78 56 4a 3c a0 d7 d9 3c 6e 43 66 3d
       -0.00745897 0.012349717 0.026592076 0.05621665
000110 f0 43 8d bc 5c c9 cb 3c a0 0e 3c bb c8 76 f3 3c
       -0.01724431 0.02487629 -0.002869524 0.029719725
000120 b4 a1 4d 3d 00 a0 7c bd ca 1e 30 bd 48 58 d5 bc
       0.05020304 -0.061676025 -0.042998113 -0.026043072
000130 80 13 9d 3c 44 c5 ac 3c 20 6b 78 3b d2 fc 5b 3d
       0.019174337 0.021090157 0.0037905648 0.053707905
000140 68 b2 7b 3d e6 3f 53 3d c4 9c 8f 3c 24 c6 b6 bc
       0.06144944 0.05157461 0.017530806 -0.022311278
000150 20 d0 4a bd d6 11 13 bd 10 1c 0a 3c 52 6e 5e bd
       -0.04951489 -0.03590568 0.008429542 -0.05430443
000160 28 44 0f bd 28 20 1c 3c 54 6d 09 3d 26 0f 5b 3d
       -0.03497711 0.009529151 0.03355153 0.053481244
000170 3c a1 42 3d 6c fa 23 bd d8 6b 1d bc 50 b3 19 3d
       0.047517046 -0.040033743 -0.0096082315 0.03752452
000180 10 a2 91 bb d4 a1 7e bd 7c 6f b1 3c 48 96 fc 3c
       -0.004444368 -0.06216605 0.021659605 0.030833378
000190 a0 43 cb bb 58 cb 5d bd e2 95 29 bd 00 cb 92 ba
       -0.00620313 -0.054149 -0.041402705 -0.0011199415
0001a0 48 29 2b bc c0 69 85 3a 58 e5 de bc 68 f3 0b bd
       -0.010446854 0.0010178611 -0.027208969 -0.034167677
0001b0 84 5b 5b 3d a8 2f 0b bc ee 46 0b 3d 5e f3 5e 3d
       0.053554073 -0.008495249 0.03400319 0.05443131
0001c0 c8 d6 52 3c 78 c1 58 3d b8 48 db 3c 20 66 04 3d
       0.012868591 0.05291888 0.026768073 0.032323956
0001d0 40 18 ef 3c 7c 2c c8 bc 90 27 c2 bb 0c ef a5 3c
       0.029186368 -0.024435274 -0.0059251264 0.020255588
0001e0 90 58 5d bd e0 bd 8e 3b f6 ef 38 3d c8 59 16 3d
       -0.054039538 0.004356131 0.04515072 0.036706716
0001f0 f0 0c bb bc bc 49 61 bd 10 38 0d bc d6 b7 0f 3d
       -0.022833318 -0.05500196 -0.008619323 0.03508743
000200 c8 79 20 bd 58 9d f3 bc f0 df a4 3b f0 d7 57 3d
       -0.03917864 -0.029738113 0.0050315782 0.05269617
000210 00 1e d4 ba 38 d8 2f bc f4 15 12 bd de b0 11 bd
       -0.0016183257 -0.010732703 -0.035665467 -0.035569064
000220 c4 09 55 3d ae a9 31 3d 98 3e 36 bd 14 41 57 3d
       0.052011266 0.04337471 -0.044493288 0.052552298
000230 44 07 e0 3c 1a 3b 4a 3d e0 e1 a5 3c 2a 1e 07 bd
       0.027347215 0.04937277 0.020249307 -0.03298775
000240 30 2a 8e 3c dc 98 81 bc f2 f1 5f bd e0 bd b7 bc
       0.017354101 -0.01581996 -0.054674096 -0.022429407
000250 54 d7 bd bc 54 27 4b 3d be 1f 3f 3d d4 95 e3 3c
       -0.023173966 0.049598053 0.04666113 0.027781405
000260 9a aa 28 3d 64 11 69 3d 20 ae d2 3c 8c 7f 83 3c
       0.041178323 0.05690135 0.025717795 0.01605203
000270 04 d3 50 bd 40 7e 85 3a a0 7f a0 3b 2a 4d 69 3d
       -0.05098249 0.001018472 0.0048980266 0.056958355
000280 c4 fe be 3c 6c b4 6d bd ee 34 21 3d 56 01 62 bd
       0.023314841 -0.05803339 0.03935712 -0.055177055
000290 98 23 3a bd d6 ae 32 bd 2c 01 aa 3c 10 5f 2f 3d
       -0.0454441 -0.043623768 0.020752512 0.042815268
0002a0 68 5f 96 bc ac 3b fd bc 58 52 12 bc 78 46 7f bd
       -0.01835604 -0.030912243 -0.008930765 -0.062323064
0002b0 f8 4a 52 bc c0 6c a7 3a b8 3a f4 3c 92 f8 03 bd
       -0.012835257 0.0012773499 0.029813156 -0.032219477
0002c0 40 e5 74 3c d8 49 fc bc 40 18 a9 bc 30 42 06 bc
       0.014947236 -0.03079693 -0.020641446 -0.008194491
0002d0 8c dd ab bc 40 fc ef bb e0 2a b5 3b 84 e3 52 bd
       -0.020979665 -0.0073237717 0.0055287927 -0.051486507
0002e0 00 a7 69 bb c0 10 48 bc ce 95 55 3d ec db 5e 3d
       -0.0035652518 -0.012211025 0.052144818 0.054408953
0002f0 28 81 90 3c aa ad 76 bd cc 55 4f 3d 38 45 d6 bc
       0.017639711 -0.060224213 0.05061893 -0.026156053
000300 e2 9d 1b 3d 6c 44 5e bd 1e d9 22 bd d8 32 5d 3c
       0.037992366 -0.05426447 -0.03975784 0.013500892
000310 c0 7f 51 3d fc 80 ae bc 68 d4 c2 bc 48 93 53 bc
       0.051147223 -0.021301739 -0.023782924 -0.012913533
000320 a4 44 df bc f4 38 11 bd 04 de 2e 3d 70 cd 89 3c
       -0.02725441 -0.035454705 0.0426922 0.016821593
000330 6e 30 7a 3d 08 c8 3c 3d 10 c2 3f bc 5e 9c 1b 3d
       0.061081342 0.046089202 -0.011703983 0.03799092
000340 98 b1 0e bc a8 d0 ff 3c e6 6e 18 bd 68 78 55 3c
       -0.008709334 0.031227425 -0.037215136 0.013029195
000350 cc aa 7d bd c0 11 58 bc 20 77 19 3b 3c 91 49 3d
       -0.061930463 -0.013187826 0.0023416951 0.049210772
000360 d2 78 47 bd ec 88 d5 bc 98 ae 11 3d 1a 25 03 bd
       -0.048699208 -0.026066266 0.035566896 -0.032017805
000370 3a 5c 28 3d a2 72 1f 3d f6 8d 1b 3d 22 3a 70 bd
       0.04110358 0.03892768 0.03797718 -0.05864919
000380 5a a4 12 3d 40 a9 b6 bb 6c e7 ad 3c 20 72 5b bc
       0.03580127 -0.0055743754 0.021228515 -0.013393909
000390 3c 25 86 3c 6c 98 db 3c d6 69 50 bd e4 3b cd 3c
       0.016375177 0.026806079 -0.050882183 0.025052972
0003a0 04 c0 8b bc ee 98 71 3d b0 a0 5b 3d f0 b4 de bb
       -0.017059334 0.058983736 0.05362004 -0.006796472
0003b0 ae d8 40 3d fa 34 2a 3d 70 d3 e8 bc 50 6a 3a bd
       0.04708164 0.04155443 -0.028421134 -0.045511544
0003c0 e0 5f 8e 3b b0 0e ef 3b e0 ac 7b 3c c6 2a 79 3d
       0.0043449253 0.007295452 0.015361041 0.060831808
0003d0 64 e4 39 3d 90 9d 0c 3c 64 9f bd bc 08 f6 4c bd
       0.045383826 0.008582488 -0.023147292 -0.05003932
0003e0 14 e3 9a 3c b6 62 07 3d e0 13 78 bd f8 84 06 bd
       0.018907107 0.033053122 -0.06056583 -0.032841653
0003f0 ec 8b d6 3c 40 ea 64 bc 64 bc f6 bc 50 26 a1 3b
       0.026189767 -0.013971865 -0.030119129 0.0049178973

linear_relu_stack.2.bias f4 [96]
000000 20 8b bc 3c 70 a3 4e bc a0 1c 20 3c b0 c7 20 bc
       0.023015559 -0.012612209 0.00977245 -0.009813234
000010 22 7f 76 bd 12 e2 2e bd d6 4f 72 3d f8 47 00 bd
       -0.060179837 -0.042696066 0.05915817 -0.031318635
000020 d0 9e a7 bc 60 b3 89 3c 20 10 06 3c 48 db dd 3c
       -0.02046147 0.016809165 0.008182555 0.0270821
000030 da bf 6d 3d 8c 5d a0 3c 5c a5 9a 3c f6 4d 6c bd
       0.058044292 0.019575857 0.018877678 -0.057691537
000040 bc 8f 34 bd 9e 5b 67 bd f8 fd 67 bc 00 57 f4 b9
       -0.04408239 -0.056483857 -0.014159672 -0.00046604127
000050 16 fd 7b bd d0 81 0b 3d 24 2c 09 bd 60 92 1a bb
       -0.06152066 0.034059346 -0.03348936 -0.0023585781
000060 fa 46 73 bd 8e 26 33 bd 68 c5 12 3d 1a 0c 38 3d
       -0.05939386 -0.04373794 0.035832793 0.044933416
000070 2e 5b 4a bd a0 dc 08 3c 90 b1 b2 bb 74 c8 d6 bc
       -0.049403362 0.008353382 -0.005453296 -0.02621863
000080 f8 54 03 3d 70 70 7a 3c bc 77 e1 bc 1a 73 19 bd
       0.032063454 0.015285596 -0.027522914 -0.037463285
000090 04 f8 93 bc a0 a1 83 3b 18 f0 c6 3c 30 4c 50 3d
       -0.018062599 0.00401707 0.024284407 0.050853908
0000a0 08 16 6e 3c 50 6d 4a 3c be 3d 4d 3d d4 5e be 3c
       0.01453162 0.012355164 0.05010771 0.023238577
0000b0 8c 52 c4 bc 98 83 23 3d 60 d8 58 bc 50 7b d3 bc
       -0.023965143 0.03992042 -0.013235182 -0.025815636
0000c0 80 5b 07 bd 80 ac 3f ba 60 3f 4c bc 34 fb 23 3d
       -0.033046246 -0.0007311776 -0.012466282 0.040034488
0000d0 50 e6 d8 3b ea a5 36 bd 78 73 6c bc 12 94 19 3d
       0.0066192523 -0.04459182 -0.014431827 0.037494726
0000e0 ee ef 1f 3d f0 a6 a9 bc 32 57 72 3d 54 b7 7f 3d
       0.039047174 -0.020709485 0.059165187 0.062430695
0000f0 00 cf a1 ba 24 39 79 3d 42 14 62 bd f4 4b 8f 3c
       -0.0012345016 0.06084551 -0.0551951 0.017492272
000100 8c 90 9a 3c 5c 64 ac bc e4 31 de bc 80 ba ac 3a
       0.018867753 -0.021043949 -0.0271234 0.001317814
000110 20 ed e3 bc c0 63 c8 bc 50 5d 5a bc 04 60 c1 3c
       -0.027823031 -0.024461627 -0.0133279115 0.023605354
000120 bc 7e 04 3d 14 03 99 bc ac d3 e3 3c f8 6b 71 3d
       0.032347426 -0.018678226 0.027810894 0.058940858
000130 88 38 45 bd 14 b4 1c 3d 60 4c 52 3c 00 c3 4d 3a
       -0.048149616 0.038257673 0.012835592 0.00078491867
000140 5a 77 75 3d c0 b0 b5 3b 76 2e 49 3d 4c 46 50 bd
       0.059928276 0.005544752 0.049116574 -0.05084829
000150 98 0b e0 bc 20 dd 80 3b 08 40 5b 3d 5a bd 06 3d
       -0.027349278 0.00393261 0.05352786 0.032895423
000160 98 1c 7e 3d 30 94 46 bc 40 d3 6b bc de f9 09 3d
       0.062038988 -0.012120292 -0.014393628 0.033685558
000170 ac 36 98 3c 26 e1 47 3d ec a5 49 3d 60 60 72 bb
       0.018580757 0.048798703 0.0492305 -0.0036983714

linear_relu_stack.4.weight f4 [16, 96]
000000 56 c0 94 3d b1 eb 22 bd 60 79 06 bb 4a eb d0 bd
       0.07263248 -0.039775554 -0.0020519122 -0.10201128
000010 64 e1 aa 3d e4 09 4a 3d 9c 36 80 bc c6 39 a4 3d
       0.08343771 0.04932584 -0.01565104 0.08018832
000020 50 f9 e0 3b bf 28 ca bd f0 19 84 3d 32 78 5e bd
       0.006865658 -0.09871053 0.0645026 -0.054313846
000030 70 e9 c4 bd f0 fd 7a 3c c7 4c 76 bd e3 e9 32 bd
       -0.09614837 0.0153193325 -0.060131814 -0.043680083
000040 00 b4 77 b9 70 8c db 3b 90 1c ce 3d cc 6a 70 3d
       -0.00023622811 0.006700091 0.100640416 0.0586956
000050 80 31 cd 3c ec 7c bc 3d 14 5f 24 3d 46 65 08 bd
       0.025048018 0.092035145 0.040129736 -0.033299707
000060 52 8b 96 3d 60 ad 14 bb 58 d4 7c 3d 90 94 65 bd
       0.07350792 -0.0022686347 0.061725944 -0.056049883
000070 e0 04 2f 3d 7c 1e 91 3d 52 d4 9e 3d ea 39 c9 bd
       0.04272926 0.070858926 0.07755341 -0.09825499
000080 20 85 77 bc 80 08 1a 3c c8 91 c5 bd a4 2a db bc
       -0.015107423 0.009401441 -0.09646946 -0.026753731
000090 c0 21 c1 3d 40 da e6 bc 1c fe a2 bc 91 89 82 bd
       0.094302654 -0.028180242 -0.01989656 -0.06373895
0000a0 38 64 4b bd 90 f3 c5 3b 2e 9a 85 bd 44 ff ff bc
       -0.049656123 0.006040998 -0.06523548 -0.03124965
0000b0 44 46 65 bd 70 e4 97 3d ac 96 00 bd 6b 70 38 bd
       -0.055975214 0.07416618 -0.031393692 -0.045029085
0000c0 b0 e7 9f bd 0e 73 a5 3d 80 d4 11 bb 20 ef 92 bd
       -0.07807863 0.080785856 -0.0022251904 -0.07174516
0000d0 c3 69 69 bd 5c 86 43 3d 26 74 ce 3d e4 39 1e 3d
       -0.056985628 0.047735557 0.10080747 0.038629428
0000e0 0c 70 a8 bd c8 5a 20 bc 20 4e e1 3c 14 ed 85 bc
       -0.08224496 -0.009787269 0.027503073 -0.0163484
0000f0 96 97 92 bd 20 39 3e 3c 70 60 e8 bc 80 3b 30 bb
       -0.07157819 0.011610299 -0.028366297 -0.0026890934
000100 00 a0 7b 38 a0 ea f6 3b 2c 86 b8 3d bc 58 cc 3d
       5.9992075e-05 0.0075352937 0.09009966 0.09977862
000110 30 bc 50 3d 38 01 50 3d 80 06 56 3c 9a 49 ba bd
       0.05096072 0.050782412 0.013063073 -0.0909607
000120 0b da ad bd 24 aa aa bd ac 91 91 3c 40 ae 35 3d
       -0.08488854 -0.08333233 0.017769657 0.04435563
000130 06 79 ce bd 5e 6c 80 3d 9b 4d 96 bd d4 b2 af 3d
       -0.10081677 0.062706694 -0.07339021 0.08579031
000140 b4 74 84 3c 98 50 95 3c 9c 0f c2 3d 55 ae a1 bd
       0.01616893 0.018226907 0.094756335 -0.07894579
000150 e8 17 72 bc ea 58 be bd 80 af ec ba e2 f4 1c bd
       -0.0147762075 -0.09294303 -0.0018057674 -0.038319476
000160 f0 aa a8 3c 98 84 de bc a0 7f b1 3d cc e6 76 3d
       0.020589322 -0.027162835 0.08666921 0.0602787
000170 1e 65 8a 3d 83 26 8a bd 30 e1 6e 3d a3 3f a8 bd
       0.06757568 -0.06745627 0.058320224 -0.08215263
000180 1d 75 b8 bd f8 4e a7 bd 30 32 6f 3c c8 34 4d 3c
       -0.090067126 -0.08169359 0.014599368 0.012524791
000190 e0 56 f4 3c 6d cd 48 bd 8c d9 1f bd e0 5d fe bc
       0.029826581 -0.049024034 -0.03902583 -0.031050622
0001a0 20 63 a2 bb fc 12 c6 bc 3e 1b aa 3d 2d e0 81 bd
       -0.0049556643 -0.024178974 0.08305977 -0.06341586
0001b0 cc a0 66 3d 84 bb 70 3d fa ce 86 3d 40 e6 2f bc
       0.05630569 0.05877258 0.065824464 -0.010736048
0001c0 98 2f c4 3d 08 61 86 3d c7 ee a8 bd b0 89 a2 bc
       0.0957939 0.06561476 -0.08248668 -0.019841045
0001d0 8c 58 a4 3d 58 96 cf 3d 98 10 b6 bd 9d 6d be bd
       0.080247015 0.10136098 -0.08889884 -0.09298251
0001e0 48 b5 30 bc 18 b9 d9 bc 20 df b9 3c a8 99 72 3c
       -0.010785408 -0.026577517 0.022689402 0.014807142
0001f0 08 f1 84 bd e8 2e 9e bd 48 f8 12 3d 80 fd c0 3d
       -0.064912856 -0.077237904 0.03588131 0.09423351
000200 20 71 ca bc a4 89 ac bd 40 c9 ec bc 9a 67 cd bd
       -0.024712145 -0.0842469 -0.028904557 -0.10029526
000210 38 53 aa 3d f1 76 99 bd d8 36 59 bc de 23 75 bd
       0.08316654 -0.074933894 -0.013257705 -0.05984866
000220 3e 5b c5 3d 50 c0 a1 bb 8b be 42 bd f8 c5 97 3d
       0.09636544 -0.0049362555 -0.047544997 0.074108064
000230 30 a1 db bc 86 df c0 3d a4 12 23 3d d0 b4 86 bc
       -0.026810259 0.09417634 0.0398127 -0.01644364
000240 08 ba 9c bc 86 ec ae 3d 34 6e 55 3d 30 c4 c9 bc
       -0.019131675 0.08541207 0.05210705 -0.024629682
000250 e4 29 44 3d 70 5d 17 bc 2e 59 82 3d 58 44 1e 3c
       0.047891513 -0.009238586 0.06364666 0.009659849
000260 b6 74 88 3d 67 69 6a bd e4 3d 95 3d 40 99 31 bd
       0.06662886 -0.057229426 0.07287195 -0.04335904
000270 5c 38 8a bd 95 d8 cf bd 50 a5 9b 3c 7c 8e b2 3c
       -0.06749031 -0.101487316 0.018999726 0.021796457
000280 d0 f7 29 bc 63 76 92 bd 0c 52 91 3d 05 48 8f bd
       -0.0103740245 -0.07151487 0.07095727 -0.069961585
000290 76 b2 cf 3d 24 57 59 3d 18 8f ad bd 88 14 8e 3d
       0.101414606 0.05306162 -0.084745586 0.0693751
0002a0 b7 02 a7 bd be 35 96 bd 20 53 4a bc ac 64 ca 3d
       -0.08154815 -0.07334469 -0.01234892 0.09882483
0002b0 ec 3d 80 bd 10 a0 8e 3c b2 b3 2d bd a0 5b 76 bc
       -0.06261811 0.017410308 -0.0424077 -0.015036494
0002c0 21 7c af bd f0 8a 11 bc d6 4e 3e bd c0 72 cc bb
       -0.085685976 -0.008883223 -0.046461903 -0.006239265
0002d0 00 0c b4 bc 1c 3c 37 3d e0 3b a9 3c f1 4a 91 bd
       -0.021978378 0.04473506 0.020658433 -0.07094372
0002e0 dc b8 3c 3d 50 6f d8 3c 14 54 35 3d c0 96 d8 3a
       0.046074733 0.026420265 0.044269636 0.0016524419
0002f0 38 d0 40 bc b4 bf 55 bd d6 05 1d bd 5c d7 5a 3d
       -0.011768393 -0.052184775 -0.038335644 0.05342804
000300 90 48 b8 bd b4 46 c6 3d b8 3a a4 bc 20 f3 4b bc
       -0.08998215 0.09681454 -0.02004753 -0.012448102
000310 00 a5 ff ba 2b 37 d0 bd e4 36 7c 3d dc 38 87 3c
       -0.001950413 -0.101667725 0.061575785 0.016506605
000320 b0 7b 93 bd 10 76 ce 3b 74 e1 30 3d e0 12 76 3d
       -0.07201326 0.0063006952 0.04318376 0.060076594
000330 64 bf 8a 3c 24 a6 8e 3c 0c 30 19 3d 58 ab 93 3d
       0.016936965 0.017413206 0.037399337 0.072104156
000340 b3 40 80 bd 3a 90 8c 3d 71 b2 a5 bd 3a 97 2a bd
       -0.062623404 0.068634465 -0.080906756 -0.041648127
000350 af b0 44 bd 85 a0 64 bd 20 a0 ad bd 3c aa a7 3c
       -0.04802006 -0.055817146 -0.08477807 0.020466916
000360 bc c9 1d bd 4d e0 74 bd c9 45 72 bd 06 2b 83 3d
       -0.038522467 -0.059784222 -0.059148584 0.064046904
000370 15 6d 3f bd 01 61 8b bd ee e1 82 3d 8a 1d b1 3d
       -0.046734888 -0.068056114 0.06390749 0.08648212
000380 70 ee 24 3d 44 36 c2 bc 10 95 d0 bc 70 68 f5 3c
       0.040266454 -0.023707516 -0.025461704 0.029957026
000390 ec b8 cb 3d 50 64 f3 bb a0 07 ae bc a6 44 83 3d
       0.099473804 -0.0074277297 -0.02124387 0.06409578
0003a0 0d 32 9f bd a8 a3 90 3d 91 4c 2b bd d0 0e 51 3d
       -0.07773218 0.07062465 -0.041821066 0.051039517
0003b0 34 f7 3d bd e6 53 c6 3d a0 2a 0d bd ac 10 d8 bc
       -0.04637833 0.09683971 -0.03446448 -0.026375137
0003c0 bc 21 1e 3d 98 69 ca 3c a4 e7 8d 3d 9c 7b ac 3d
       0.03860639 0.024708554 0.069289476 0.08422014
0003d0 34 43 af bd 00 34 cb 3d bd 95 52 bd 9e b8 6d bd
       -0.0855774 0.099220276 -0.051412333 -0.058037393
0003e0 98 18 7d 3d 26 75 b5 3d 50 6d 0f 3d 88 7c 34 3c
       0.061791033 0.08860235 0.035016358 0.011016019
0003f0 c0 27 fd ba 5a 60 82 bd a0 37 2f 3d 60 21 5e 3b
       -0.0019314215 -0.06366034 0.042777658 0.0033894405

linear_relu_stack.4.bias f4 [16]
000000 22 66 6a bd ea 16 1a bd c0 49 a4 3b 30 90 20 bc
       -0.057226308 -0.03761951 0.0050136745 -0.009800002
000010 73 55 be bd b8 b9 07 3c 9c 58 3f 3d 58 b2 ba bc
       -0.09293642 0.008284025 0.046715364 -0.022790119
000020 94 42 9d bd d0 aa 70 3d 38 a9 8b bc e4 7c ad bd
       -0.076787144 0.05875665 -0.017048463 -0.084710866
000030 88 bd b1 3d 62 b6 83 3d ba 99 6f bd 16 46 b4 bd
       0.08678728 0.06431271 -0.058496214 -0.0880243

linear_relu_stack.6.weight f4 [4, 16]
000000 f4 76 4a be b0 d9 36 be 28 b3 b4 bd 40 05 53 3c
       -0.1977194 -0.17856479 -0.08823234 0.01287967
000010 d0 79 ec 3c f8 40 4e 3e d6 3d 14 3e 52 4b 7a be
       0.028866678 0.20141971 0.14476714 -0.24442795
000020 52 f6 5e be 94 f2 de bd 88 51 ec 3d c0 a4 d6 3c
       -0.21773651 -0.10886112 0.11538988 0.026201606
000030 b8 cf 72 be 58 2d 69 bd c4 6f ec 3d 80 c8 e5 3b
       -0.23712051 -0.05692801 0.11544755 0.007012427
000040 a0 2a 81 bc 4c 99 20 be 74 bc 15 3e c0 b8 9a bc
       -0.015767395 -0.15683478 0.1462267 -0.018886924
000050 aa f8 22 3e 80 10 4c 3e 48 a3 35 bd 3c 7b 25 3e
       0.1591517 0.19928169 -0.04434517 0.16160291
000060 98 a1 eb bd d2 cc 0a 3e 10 d2 db 3d 7a 38 1e 3e
       -0.11505431 0.13554695 0.107334256 0.15451232
000070 9c df 5d 3e aa fc 63 3e a0 03 bf 3c 32 a0 5f 3e
       0.21667331 0.22264352 0.023317158 0.21838453
000080 a8 0c 79 3e 70 d4 8b 3d 78 2b b8 3d 98 bc d9 3d
       0.24321234 0.068276286 0.08992666 0.106316745
000090 78 c6 3a bd 72 84 7d be a0 32 0c 3c 80 5d 7e 3c
       -0.04559943 -0.24757555 0.008556992 0.015525222
0000a0 14 66 cd 3d e0 65 99 3d 3c 52 76 3e 9c db 92 bd
       0.100292355 0.07490134 0.24054807 -0.071707934
0000b0 e0 9c 3b 3d de 6b 3e 3e 74 02 a9 3d 82 99 73 be
       0.045803905 0.18595836 0.08252421 -0.23789027
0000c0 10 13 21 3e 70 b7 8f 3c 34 16 72 be 84 55 19 3e
       0.15729928 0.017543525 -0.23641282 0.14974028
0000d0 dc 44 56 3e 3e 17 7e 3e 54 60 9f 3d 90 41 e3 bc
       0.20924705 0.24813554 0.07782045 -0.027741224
0000e0 c4 eb 4e 3e dc 1d 68 3e e4 03 c3 3d e0 10 76 3c
       0.20207125 0.2266764 0.095222265 0.015018672
0000f0 00 99 15 3e 64 e7 24 be 00 38 89 ba c0 16 00 3c
       0.14609146 -0.16103894 -0.001046896 0.007817924

linear_relu_stack.6.bias f4 [4]
000000 8c 11 86 3d bc e3 96 3d 44 26 85 bd 38 d3 99 3d
       0.065463156 0.07367656 -0.06501439 0.0751099
